rnn/rnn.pth (torch_old, 18810 bytes, 10 tensors)

rnn.weight_ih_l0 f4 [10, 100]
-0.037320744 0.44421443 0.07537503 0.03060282 0.12426108 0.40935355 0.46718365 0.32871917
0.54768544 0.22392447 0.55177486 0.50002205 -0.0279042 0.32529137 0.0009647808 0.50435954
-0.042409327 0.1288953 0.07885299 0.3191852 0.055715166 -0.076075606 -0.031023245 0.051129315
0.24811625 0.13938332 0.037127428 0.37673822 0.060839925 0.008826477 0.37108672 0.4545829
-0.065840535 0.057419464 0.4505901 0.044699457 0.4674921 0.39641348 0.10500623 0.14742783
0.13408947 0.5190651 0.16413419 0.37260124 -0.054671414 0.39219454 0.47578394 0.088186696
0.32227805 0.31110176 0.38378713 0.44978288 0.27852863 0.37988642 0.10291254 0.42374668
0.15571205 0.43450117 0.05949469 0.06589373 0.1450481 0.061801963 0.06656674 0.44749177
0.41300225 0.10222315 0.5215455 -0.04618079 -0.03186293 0.26290312 0.23621154 0.028558064
0.1602862 -0.06512566 0.2878569 -0.029941237 0.32921785 0.4233178 0.4692638 0.23730412
0.016382203 0.005944634 0.5391565 0.40551478 0.46442103 0.44803482 0.14984067 -0.04446627
0.27029407 0.17504005 -0.033769995 0.23029241 0.40189537 0.34491184 0.054703876 0.42434758
0.5027628 0.022277988 0.3190933 0.08130847 0.158157 0.03483112 0.30333543 0.005641688
0.031042177 0.11461884 0.31123754 0.14767618 0.16732867 0.010660081 0.27890953 0.2411531
0.52490747 0.24674852 0.26076236 0.40949932 0.1668489 0.09986494 0.032016512 0.25196165
-0.028414106 0.467909 0.4146884 0.045234405 -0.02527931 0.5275928 -0.036437877 0.4843666
0.07920079 -0.08918992 0.49254647 -0.10115411 -0.004345811 0.34351546 0.008292488 0.24404263
0.37787145 0.113184676 0.3169065 0.35783818 0.3276906 -0.09694703 0.48101005 0.5043581
-0.100937985 -0.03247135 0.21594389 -0.07439566 -0.082179226 0.52818567 0.013755688 0.4051283
0.16855474 0.3064443 0.39806655 0.13749053 0.021452215 -0.04614936 0.23971118 -0.052046597
0.3446809 0.31882745 -0.052651525 0.14844072 0.09863921 0.17108613 0.11878517 0.3247757
0.27073228 0.1928028 0.23069003 -0.08136962 0.37678373 0.44717118 0.027437732 -0.02924972
-0.01434064 0.32545364 0.23475952 0.39515704 0.15057436 0.17862518 0.08984833 0.021955222
0.10280059 0.26983044 0.037024215 0.2987968 0.111624055 0.052429557 -0.059023656 0.21876587
0.10470233 0.22020292 0.33649573 0.2001677 0.20077163 -0.067277506 0.44067606 0.5119119
-0.32079592 -0.12632449 -0.15292364 -0.045297153 -0.010074489 -0.3619587 -0.2561489 -0.4245372
-0.34985125 -0.10950034 0.04916671 -0.51581085 -0.33310628 -0.2978203 -0.28675935 -0.22778477
-0.32052106 -0.30697027 -0.12926084 -0.21950972 -0.38753596 -0.39147475 -0.32227576 -0.029103782
-0.2625622 -0.066299275 0.087606125 -0.38303822 -0.008710379 -0.27315503 -0.3872261 -0.35246953
-0.16091855 -0.31670758 -0.41621768 0.01421329 0.032556146 -0.17164053 -0.23321037 -0.04012183
-0.23446538 -0.19703428 -0.20908992 -0.42239287 0.0878358 -0.2509705 -0.36389157 -0.47783092
-0.3277736 -0.043569256 -0.44178534 0.030279057 0.009205745 -0.36381504 -0.008649616 -0.30875078
00000000: a3dd 18bd 1370 e33e 395e 9a3d c4b2 fa3c
00000010: 987c fe3d ca96 d13e b232 ef3e e14d a83e
00000020: 1d35 0c3f 754c 653e 1e41 0d3f 7201 003f
00000030: 5997 e4bc 978c a63e 58e9 7c3a b51d 013f
00000040: 67b5 2dbd 21fd 033e ad7d a13d 3e6c a33e
00000050: 9635 643d 87cd 9bbd 7624 febc f96c 513d
00000060: 3012 7e3e 80ba 0e3e ee12 183d d5e3 c03e
00000070: 4933 793d ee9c 103c 14ff bd3e 17bf e83e
00000080: 67d7 86bd ac30 6b3d bfb3 e63e c716 373d
00000090: 205b ef3e b5f6 ca3e 820d d73d 52f7 163e
000000a0: c04e 093e 73e1 043f cb12 283e 97c5 be3e
000000b0: 22ef 5fbd b9cd c83e f499 f33e 3a9b b43d
000000c0: a101 a53e bb48 9f3e bf7f c43e f149 e63e
000000d0: 4e9b 8e3e 7980 c23e cfc3 d23d 53f5 d83e
000000e0: fb72 1f3e f076 de3e b4b0 733d 4bf3 863d
000000f0: 7d87 143e 0e24 7d3d 2554 883d a41d e53e
00000100: 0875 d33e 5f5a d13d 0284 053f 1128 3dbd
00000110: b482 02bd 3d9b 863e 70e1 713e 9af2 e93c
00000120: 1122 243e 9a60 85bd fb61 933e 5347 f5bc
00000130: 3e8f a83e 1cbd d83e 5843 f03e daff 723e
00000140: f833 863c 34cb c23b 2906 0a3f a29f cf3e
00000150: 98c8 ed3e d264 e53e d56f 193e 4322 36bd
00000160: fc63 8a3e b33d 333e 6852 0abd c6d1 6b3e
00000170: 3bc5 cd3e 4998 b03e 2c11 603d 1644 d93e
00000180: 10b5 003f 5480 b63c 3260 a33e 0e85 a63d
00000190: e9f3 213e 14ab 0e3d c84e 9b3e e9dd b83b
000001a0: 2a4c fe3c 48bd ea3d 875a 9f3e 6d38 173e
000001b0: 3558 2b3e 9fa7 2e3c 3bcd 8e3e d7f0 763e
000001c0: 5660 063f a5ab 7c3e a582 853e e5a9 d13e
000001d0: 70da 2a3e fd85 cc3d bf23 033d 1e01 813e
000001e0: b3c4 e8bc c591 ef3e 0a52 d43e b647 393d
000001f0: 8e16 cfbc 5210 073f e23f 15bd e6fe f73e
00000200: 0634 a23d 34a9 b6bd 0d2f fc3e e329 cfbd
00000210: 4e67 8ebb 42e1 af3e 37dd 073c 50e6 793e
00000220: 5e78 c13e 5ecd e73d 9241 a23e 9136 b73e
00000230: 10c7 a73e 2a8c c6bd f346 f63e 9d1d 013f
00000240: 93b8 cebd ae00 05bd 6520 5d3e c05c 98bd
00000250: 954d a8bd 2d37 073f 8a5f 613c fa6c cf3e
00000260: 9d99 2c3e 44e6 9c3e 61cf cb3e 51ca 0c3e
00000270: 8ebc af3c 1c07 3dbd d976 753e d02e 55bd
00000280: 047a b03e 5a3d a33e 20a9 57bd d800 183e
00000290: 5b03 ca3d 3431 2f3e a445 f33d 0049 a63e
000002a0: 6c9d 8a3e 196e 453e 023a 6c3e 1ea5 a6bd
000002b0: cce9 c03e 9ff3 e43e 18c5 e03c 1c9d efbc
000002c0: 01f5 6abc dca1 a63e cd64 703e 0652 ca3e
000002d0: 2a30 1a3e 85e9 363e 6702 b83d 70db b33c
000002e0: 1e89 d23d 3727 8a3e b4a6 173d e5fb 983e
000002f0: 279b e43d 60c0 563d cac2 71bd 2904 603e
00000300: 2d6e d63d e07c 613e 2b49 ac3e c3f8 4c3e
00000310: 1497 4d3e cac8 89bd 4ba0 e13e a90c 033f
00000320: 5d3f a4be 355b 01be 0498 1cbe 8289 39bd
00000330: 780f 25bc a752 b9be f325 83be f15c d9be
00000340: b41f b3be b741 e0bd 0863 493d 2e0c 04bf
00000350: e88c aabe e77b 98be 1fd2 92be 6940 69be
00000360: 561b a4be 352b 9dbe f45c 04be 28c7 60be
00000370: 1d6b c6be 616f c8be 5401 a5be 0e6b eebc
00000380: 8d6e 86be eac7 87bd d76a b33d 961d c4be
00000390: fab5 0ebc fada 8bbe 8042 c6be e376 b4be
000003a0: d5c7 24be 7f27 a2be 7c1a d5be dcde 683c
000003b0: 9859 053d 89c2 2fbe b3ce 6ebe ca56 24bd
000003c0: b117 70be 5bc3 49be ab1b 56be e143 d8be
000003d0: 42e3 b33d 357f 80be ff4f babe 41a6 f4be
000003e0: f1d1 a7be ad75 32bd b031 e2be c90b f83c
000003f0: b1d3 163c f745 babe 1eb7 0dbc 9514 9ebe

rnn.weight_hh_l0 f4 [10, 10]
0.26801702 -0.11216666 0.013912529 -0.22475353 -0.109264195 0.28308716 0.07240546 -0.08440019
0.041526288 -0.20220667 -0.15854646 -0.0791775 -0.13948287 0.01093322 -0.31184742 0.070046335
0.12633002 0.06810996 -0.2505321 -0.06567818 0.19722185 0.2683179 -0.20090698 0.08421084
-0.23825319 -0.20053852 -0.096699655 -0.28277862 -0.15771799 -0.16933075 -0.081357524 -0.22143936
0.29173157 0.28763178 0.2385619 0.13899615 0.15168795 -0.31531093 -0.03112489 0.10857993
-0.12384297 0.2710382 -0.25769198 0.12906018 0.1599445 0.10795373 0.2799115 -0.20779982
-0.31578928 -0.20494887 -0.10497074 0.16767395 -0.076970175 -0.118907794 -0.11526187 0.16508618
-0.1306997 -0.14393122 -0.21500862 0.039984405 -0.18114805 -0.035811603 -0.27607575 -0.12980416
-0.017202467 -0.19288683 -0.12890364 0.1906887 0.13009003 -0.22589323 -0.1032756 0.10889104
0.06263134 0.24650684 -0.2134558 0.25289932 -0.3060661 0.18689993 -0.22646536 0.06668872
-0.026347756 -0.01613617 0.21255025 -0.09740643 0.19845524 -0.057895303 -0.29774275 0.07457158
-0.29888776 -0.037825227 0.008795649 -0.27533054 0.14985761 0.14404413 -0.13764094 0.08684373
-0.29018074 -0.004835874 0.09819457 0.028321058
00000000: 8739 893e a2b7 e5bd 60f1 633c ca25 66be
00000010: e8c5 dfbd cdf0 903e 5049 943d 02da acbd
00000020: 7817 2a3d 440f 4fbe 015a 22be d027 a2bd
00000030: 99d4 0ebe 4021 333c 77aa 9fbe 7474 8f3d
00000040: a85c 013e 3c7d 8b3d be45 80be 4882 86bd
00000050: 86f4 493e f760 893e 8fba 4dbe bc76 ac3d
00000060: a5f8 73be f859 4dbe 780a c6bd 5cc8 90be
00000070: d380 21be 0a65 2dbe c69e a6bd 00c1 62be
00000080: d75d 953e 7944 933e 9249 743e 0255 0e3e
00000090: 1654 1b3e 6f70 a1be a0f9 febc 285f de3d
000000a0: 62a1 fdbd 85c5 8a3e 34f0 83be 5a28 043e
000000b0: 7ec8 233e d816 dd3d 8f50 8f3e 7ac9 54be
000000c0: 22af a1be 1ede 51be e6fa d6bd b8b2 2b3e
000000d0: 8aa2 9dbd ee85 f3bd 6a0e ecbd 5a0c 293e
000000e0: 24d6 05be b562 13be 382b 5cbe b0c6 233d
000000f0: e07e 39be 30af 12bd cd59 8dbe 62eb 04be
00000100: 30ec 8cbc 2084 45be 51ff 03be e643 433e
00000110: 5236 053e 8e50 67be 2882 d3bd 4402 df3d
00000120: dc44 803d 4a6c 7c3e 2894 5abe 057c 813e
00000130: b2b4 9cbe b262 3f3e 89e6 67be 1894 883d
00000140: 40d7 d7bc 0030 84bc c6a6 593e 067d c7bd
00000150: da37 4b3e a023 6dbd bd71 98be fcb8 983d
00000160: d107 99be a0ee 1abd a01b 103c 20f8 8cbe
00000170: 4674 193e 4e80 133e bff1 0cbe 20db b13d
00000180: 9292 94be 4076 9ebb 3c1a c93d 9001 e83c

rnn.bias_ih_l0 f4 [10]
0.096431874 0.34662214 -0.4886822 0.11330207 -0.06021526 0.48352847 0.3325309 -0.13778873
0.20658483 -0.42271686
00000000: 137e c53d 7578 b13e 8e34 fabe ea0a e83d
00000010: 47a4 76bd 0b91 f73e 7d41 aa3e 7d18 0dbe
00000020: f98a 533e 586e d8be

rnn.bias_hh_l0 f4 [10]
0.026025994 0.34745038 -0.0763027 0.19475691 0.17622136 0.28672224 0.14708208 0.11704723
-0.05879047 -0.2839068
00000000: 7734 d53c 04e5 b13e 9744 9cbd 5b6e 473e
00000010: 5f73 343e 42cd 923e af9c 163e 75b6 ef3d
00000020: 47ce 70bd 3b5c 91be

rnn.weight_ih_l0_reverse f4 [10, 100]
0.040631205 -0.063383706 0.15766935 0.022476573 0.20626989 0.24550055 -0.1084132 0.054732647
0.31051433 0.2177228 -0.059797756 0.34753808 0.029225003 0.36027622 0.51145226 0.36107403
0.36910272 0.483389 0.440884 0.27390355 0.48739251 0.37278417 0.2394774 0.22140731
0.24726352 0.025833966 0.055073258 -0.008841451 0.15398726 -0.104995534 0.18009053 0.11041172
0.31132144 -0.09079861 0.49867293 -0.032448635 0.056990333 0.5120888 0.1796296 0.026730983
0.40320268 -0.029058538 0.39684185 0.11361671 0.45915422 0.34564775 0.065874666 -0.023635384
0.19808467 0.49828202 0.42420298 0.49839526 0.02899241 -0.096870266 0.07353919 0.32808146
-0.06093537 0.15025961 -0.00846441 0.2748049 0.4844256 0.4744654 -0.05631134 0.2723997
-0.027015029 -0.044382263 0.4527265 -0.041272037 0.28651857 0.29948238 0.35997963 0.21494189
0.045653448 -0.10283928 -0.019474268 -0.023815703 0.42735687 0.35305917 0.11039959 0.037104942
0.008277416 0.3517808 0.29475394 0.16898412 0.1962018 0.44656554 0.008577035 0.34563306
0.18230051 -0.11922893 -0.08885092 0.085620105 0.023342699 0.35839745 0.08068509 0.1256424
0.11462535 -0.022333393 0.095404424 0.33636978 -0.2212977 -0.43762493 -0.3008553 0.07485751
-0.3490478 -0.13297477 -0.21973494 -0.051633578 -0.17870952 -0.43088627 -0.3519251 -0.2295854
-0.051855445 -0.05178715 0.08840792 -0.4591284 -0.35641915 -0.027696954 -0.366348 -0.18050663
-0.38184586 -0.13946594 0.08392507 0.0066238414 -0.28397447 -0.41466302 -0.37062067 -0.07641087
-0.35333747 -0.005598837 -0.18508552 -0.08356261 -0.19224325 -0.30528525 -0.40328696 -0.031796034
0.07167686 -0.3035371 -0.38601908 -0.2876543 0.066493355 -0.27832273 -0.26798216 -0.43755928
0.03825078 0.06113606 -0.31983674 -0.13841365 0.1039949 -0.41141003 -0.007888749 -0.4340364
-0.42063105 0.12167144 -0.018555298 -0.32040536 -0.11829884 -0.501104 -0.29746497 -0.36146376
-0.22402789 -0.29648495 -0.28244463 0.0028121343 -0.32233828 -0.2199872 0.08615314 0.0606371
-0.152662 0.037552238 -0.19241634 -0.16404763 -0.29092854 -0.49875253 -0.23110326 -0.12030994
-0.40080148 -0.4556411 -0.43574786 -0.11006015 -0.31755432 0.045628116 -0.44923815 -0.4412705
0.098600484 -0.03448164 -0.44887814 -0.18652534 -0.45851892 -0.1745137 0.11668374 0.09899209
-0.13947196 0.12080495 -0.46660042 -0.13497685 -0.0657511 0.051176544 -0.24419154 -0.10098646
0.39914182 -0.023058899 0.013254361 0.08506948 -0.012643713 0.46235266 0.098537564 0.36488435
0.19169973 0.022684997 0.080052674 0.36361784 0.1769448 -0.02726812 0.045921523 0.51868415
0.08577279 0.32521564 0.10522969 0.42557934 0.025021253 0.37560105 0.119429596 0.036195446
0.004469185 0.36735633 0.124950014 0.13318396 0.09701666 0.18504529 0.5234386 0.16567563
0.52147084 0.14861153 0.3660632 -0.08881043 -0.028704232 0.27680638 0.4736798 0.09232235
0.004465777 0.3815061 -0.046242822 0.51551497 0.0994684 -0.024112117 0.26174897 0.41030487
0.08834534 0.23290297 0.35536504 -0.03932479 -0.07138816 0.2584904 0.058922604 0.38543573
00000000: e86c 263d 51cf 81bd 1374 213e ca20 b83c
00000010: 6a38 533e 7f64 7b3e bd07 debd 572f 603d
00000020: bcfb 9e3e baf2 5e3e 7eee 74bd 83f0 b13e
00000030: 4669 ef3c 2076 b83e 89ee 023f b2de b83e
00000040: 08fb bc3e c37e f73e 8cbb e13e 163d 8c3e
00000050: 838b f93e 91dd be3e 9039 753e 99b8 623e
00000060: a632 7d3e c1a1 d33c 7f94 613d bcdb 10bc
00000070: d6ae 1d3e e607 d7bd a769 383e 8a1f e23d
00000080: 8665 9f3e 9ff4 b9bd 0f52 ff3e dce8 04bd
00000090: b26e 693d 4018 033f d2f0 373e effa da3c
000000a0: 9570 ce3e 2c0c eebc db2e cb3e e1af e83d
000000b0: 4316 eb3e bef8 b03e 4ce9 863d fe9e c1bc
000000c0: b5d6 4a3e d21e ff3e 2231 d93e aa2d ff3e
000000d0: 7e81 ed3c eb63 c6bd b79b 963d 4bfa a73e
000000e0: 5e97 79bd a8dd 193e 4fae 0abc 3ab3 8c3e
000000f0: a206 f83e 21ed f23e b8a6 66bd f977 8b3e
00000100: 9f4e ddbc 2dca 35bd c5cb e73e de0c 29bd
00000110: 90b2 923e c155 993e 404f b83e ba19 5c3e
00000120: 1cff 3a3d 679d d2bd 8088 9fbc 2619 c3bc
00000130: 85ce da3e 2cc4 b43e 2e19 e23d 5afb 173d
00000140: 009e 073c 9d1c b43e fde9 963e 2c0a 2d3e
00000150: 20e9 483e 3da4 e43e b186 0c3c d1f6 b03e
00000160: fcac 3a3e 4c2e f4bd 79f7 b5bd 9859 af3d
00000170: 3039 bf3c df7f b73e 393e a53d 67a8 003e
00000180: b2c0 ea3d 85f4 b6bc 6563 c33d a938 ac3e
00000190: dd9b 62be 6010 e0be b509 9abe e54e 993d
000001a0: 65b6 b2be 8a2a 08be 3202 61be bb7d 53bd
000001b0: a1ff 36be 209d dcbe 872f b4be 6f18 6bbe
000001c0: 6066 54bd c31e 54bd 360f b53d e112 ebbe
000001d0: 927c b6be b9e4 e2bc f791 bbbe bbd6 38be
000001e0: 4d81 c3be 29d0 0ebe e8e0 ab3d cf0c d93b
000001f0: 1a65 91be b64e d4be fec1 bdbe 4d7d 9cbd
00000200: a6e8 b4be 7376 b7bb 0f87 3dbe e022 abbd
00000210: 6adb 44be 594e 9cbe a17b cebe 8f3c 02bd
00000220: 51cb 923d 3769 9bbe 4ba4 c5be 6d47 93be
00000230: ab2d 883d 5180 8ebe f534 89be c507 e0be
00000240: daac 1c3d ce69 7a3d a4c1 a3be 4fbc 0dbe
00000250: 47fb d43d 56a4 d2be d03f 01bc 053a debe
00000260: f45c d7be e02e f93d 4801 98bc 2c0c a4be
00000270: aa46 f2bd 5a48 00bf 544d 98be c711 b9be
00000280: 9167 65be e0cc 97be 959c 90be c94b 383b
00000290: 8609 a5be 5344 61be 0f71 b03d 9c5e 783d
000002a0: 6d53 1cbe 60d0 193d ca08 45be 1afc 27be
000002b0: 96f4 94be 7e5c ffbe 55a6 6cbe 0f65 f6bd
000002c0: da35 cdbe ca49 e9be 581a dfbe 3767 e1bd
000002d0: 7b96 a2be 8ce4 3a3d 8b02 e6be 35ee e1be
000002e0: 0def c93d 9f3c 0dbd 5bd3 e5be 8000 3fbe
000002f0: fec2 eabe b8b3 32be e2f7 ee3d 5dbc ca3d
00000300: bdd1 0ebe 9668 f73d 40e6 eebe 5f37 0abe
00000310: 83a8 86bd 7f9e 513d 590d 7abe fdd1 cebd
00000320: 515c cc3e 04e6 bcbc d228 593c e838 ae3d
00000330: 9327 4fbc 7db9 ec3e 10ce c93d 1fd2 ba3e
00000340: ef4c 443e e3d5 b93c a8f2 a33d 1e2c ba3e
00000350: 0531 353e 6461 dfbc 3518 3c3d 7cc8 043f
00000360: a5a9 af3d aa82 a63e aa82 d73d 89e5 d93e
00000370: 5ff9 cc3c c84e c03e 8197 f43d ad41 143d
00000380: 3e72 923b 2116 bc3e cbe5 ff3d 6061 083e
00000390: acb0 c63d 837c 3d3e 1200 063f dfa6 293e
000003a0: 1d7f 053f 9f2d 183e a36c bb3e 3ee2 b5bd
000003b0: 2325 ebbc 91b9 8d3e 2986 f23e 8013 bd3d
000003c0: a755 923b c454 c33e 1d69 3dbd caf8 033f
000003d0: 17b6 cb3d c686 c5bc f603 863e 7b13 d23e
000003e0: 67ee b43d 1e7e 6e3e 68f2 b53e 0813 21bd
000003f0: f533 92bd db58 843e d458 713d d557 c53e

rnn.weight_hh_l0_reverse f4 [10, 10]
-0.14304541 -0.22620551 -0.17971593 -0.01614353 -0.12767999 0.27419904 0.0045240223 -0.2965251
0.04210776 0.2902108 -0.056111008 0.2425994 0.29937604 -0.014784157 -0.120566964 0.27181277
0.10756272 -0.029975712 -0.2570589 0.0062332153 -0.064281255 0.29445395 0.25334588 0.27662286
-0.21491027 0.15316758 0.12790972 -0.009489536 -0.18749548 0.13986188 -0.17839755 -0.075101584
0.2569585 0.01731518 0.039783 0.29590073 0.18331459 0.23185894 0.1587264 0.15292278
0.12461737 0.28865102 -0.27788532 0.11532807 0.15133867 0.20913598 0.1891745 0.09330222
-0.22075444 0.23448887 0.29553673 0.044323802 -0.041410744 0.1622453 -0.27195117 -0.235883
-0.25776672 -0.2505987 -0.20556673 0.026353419 0.17117825 -0.28647688 -0.1673199 -0.23909652
0.12974983 -0.14849636 -0.28400913 -0.052641034 -0.090282395 0.21310839 -0.12564589 -0.046234787
0.29972848 0.3020456 -0.22933944 0.0135059655 -0.26988536 0.30127212 0.30101696 0.14156607
-0.042856872 -0.050893575 0.011790246 -0.10876417 0.10300633 0.22179374 0.013882071 0.10406411
-0.056083947 0.117666095 -0.060685277 0.17283976 0.096523255 0.12205857 -0.2721566 0.15928435
-0.19391325 -0.031749517 0.2990105 0.004816681
00000000: 7f7a 12be 6ba2 67be 7407 38be 703f 84bc
00000010: 8bbe 02be d163 8c3e 403e 943b 23d2 97be
00000020: 3079 2c3d 8396 943e a8d4 65bd fa6b 783e
00000030: d147 993e 4039 72bc d0eb f6bd 0b2b 8b3e
00000040: d849 dc3d a08f f5bc 399d 83be 0040 cc3b
00000050: e4a5 83bd abc2 963e 8db6 813e 83a1 8d3e
00000060: 7011 5cbe f6d7 1c3e c4fa 023e 007a 1bbc
00000070: d1fe 3fbe f437 0f3e d9ad 36be dcce 99bd
00000080: 1190 833e 90d8 8d3c 80f3 223d 4d80 973e
00000090: d2b6 3b3e 6e6c 6d3e 2c89 223e ca97 1c3e
000000a0: 6437 ff3d 11ca 933e fc46 8ebe 2031 ec3d
000000b0: 86f8 1a3e be27 563e f6b6 413e 3c15 bf3d
000000c0: 740d 62be da1d 703e 9750 973e e08c 353d
000000d0: 509e 29bd a223 263e 2f3d 8bbe 508b 71be
000000e0: 00fa 83be 794e 80be 1680 52be 20e3 d73c
000000f0: 5a49 2f3e 19ad 92be e855 2bbe b8d5 74be
00000100: 24dd 043e 6e0f 18be a569 91be 209e 57bd
00000110: fae5 b8bd 1639 5a3e 51a9 00be b060 3dbd
00000120: 0376 993e b9a5 9a3e f5d7 6abe 2048 5d3c
00000130: 6a2e 8abe 5740 9a3e e51e 9a3e b2f6 103e
00000140: b08a 2fbd c875 50bd e02b 413c c0bf debd
00000150: fcf4 d23d e61d 633e a071 633c 901f d53d
00000160: 48b8 65bd ecfa f03d 2091 78bd e8fc 303e
00000170: fcad c53d d8f9 f93d 1c58 8bbe 701b 233e
00000180: 3291 46be c80b 02bd e717 993e 40d5 9d3b

rnn.bias_ih_l0_reverse f4 [10]
0.2676883 -0.379616 -0.07280733 -0.48522508 0.29259884 -0.30908838 -0.40897796 -0.14308697
-0.17503875 -0.048669048
00000000: 710e 893e 075d c2be 021c 95bd 6c6f f8be
00000010: 84cf 953e d540 9ebe 8f65 d1be 6485 12be
00000020: 5c3d 33be 3259 47bd

rnn.bias_hh_l0_reverse f4 [10]
0.4087239 -0.28995717 0.37967384 -0.30564553 0.5312975 0.02457577 -0.16654152 -0.42201436
0.07292073 0.31425118
00000000: 4244 d13e 4475 94be 9c64 c23e 927d 9cbe
00000010: 1d03 083f 2053 c93c dc89 2abe 4412 d8be
00000020: 7757 953d 88e5 a03e

linear.weight f4 [100, 20]
21.157143 21.196754 -21.372583 21.21917 21.339525 21.216442 21.265463 21.250614
21.143982 -21.329216 21.195875 -21.216898 21.134306 -21.26269 21.32321 -21.248817
-21.241804 -21.175373 -21.286604 21.207727 21.345465 21.158337 -21.0653 21.070639
21.207588 21.058178 21.224413 21.359476 21.328365 -21.238274 21.350199 -21.344185
21.180532 -21.426456 21.152203 -21.067976 -21.151367 -21.339432 -21.130083 21.45854
21.222752 21.411976 -21.499287 21.398394 21.398872 21.060776 21.172718 21.115063
21.300987 -20.956766 21.082624 -21.12683 21.502867 -21.120369 21.18849 -21.079285
-21.1835 -21.50693 -21.30212 21.407501 21.112574 21.174896 -21.406857 21.131716
21.429537 21.361544 21.323233 21.435678 21.141647 -21.081766 21.103125 -21.265112
21.20426 -21.51402 21.290325 -21.447044 -21.04159 -21.149258 -21.069508 21.394938
21.35848 21.183146 -21.217237 20.972517 21.411165 21.203367 21.280485 21.436113
21.21935 -21.20928 21.30963 -21.147718 21.301983 -21.250534 21.09449 -21.426975
-21.470604 -21.343378 -21.081087 21.16431 21.278433 21.442514 -21.338453 20.88277
21.400675 21.162764 21.205269 21.054043 21.333216 -20.92529 21.140059 -21.440434
21.38814 -21.465256 21.117277 -21.440832 -21.170158 -21.25446 -21.260443 21.26455
21.070759 21.29596 -21.427906 21.817295 21.059313 21.33333 21.254662 21.297194
21.420195 -21.21565 21.30278 -21.232937 21.058271 -21.112474 21.212395 -21.273277
-21.178596 -21.465803 -21.193602 21.037155 21.08502 21.140488 -21.229597 21.594114
21.295353 21.46129 21.142345 21.095205 21.213606 -20.69956 21.450068 -21.377155
21.344309 -21.305023 21.187773 -21.131708 -21.04462 -21.491783 -21.201435 21.377188
21.177519 21.192951 -21.241304 21.699871 21.25229 21.281212 21.184053 21.04831
21.262955 -21.427153 21.180098 -21.281271 21.124205 -21.12141 21.297054 -21.31281
-21.387243 -21.107517 -21.35574 21.41888 21.36288 21.220549 -21.190245 21.688675
21.15284 21.276926 21.255552 21.151962 21.393753 -21.493696 21.254467 -21.098032
21.096289 -21.108084 21.001106 -21.393564 -21.182482 -21.45252 -21.201668 21.285229
21.217697 21.227428 -21.12256 21.375528 21.23014 21.379171 21.156605 21.572622
21.337677 -21.51231 21.3152 -21.075811 21.334398 -21.207586 21.14274 -21.286034
-20.96227 -21.226357 -21.199375 21.276957 21.059816 21.238214 -21.360935 21.636536
20.993551 21.279837 21.293856 21.77203 21.125383 -21.483963 21.378445 -21.225769
21.082182 -21.015001 21.118095 -21.215374 -21.126154 -21.408598 -21.254904 21.302034
21.237354 21.016384 -21.16721 21.500761 21.269857 21.12248 21.068539 21.687334
21.1457 -21.639647 21.124153 -21.076195 21.384483 -21.407661 21.034578 -21.377153
00000000: d441 a941 f492 a941 0dfb aac1 dcc0 a941
00000010: 59b7 aa41 46bb a941 ab1f aa41 4201 aa41
00000020: e026 a941 3ca2 aac1 2791 a941 35bc a9c1
00000030: 0f13 a941 fd19 aac1 ef95 aa41 94fd a9c1
00000040: 37ef a9c1 2a67 a9c1 f74a aac1 6da9 a941
00000050: 83c3 aa41 4644 a941 bc85 a8c1 ab90 a841
00000060: 24a9 a941 2677 a841 99cb a941 35e0 aa41
00000070: 7ea0 aa41 fce7 a9c1 35cd aa41 e4c0 aac1
00000080: bb71 a941 6269 abc1 b637 a941 378b a8c1
00000090: 0036 a9c1 28b7 aac1 690a a9c1 17ab ab41
000000a0: 32c8 a941 ba4b ab41 8afe abc1 e92f ab41
000000b0: e430 ab41 787c a841 ba61 a941 a6eb a841
000000c0: 6c68 aa41 75a7 a7c1 37a9 a841 bf03 a9c1
000000d0: df05 ac41 84f6 a8c1 0782 a941 60a2 a8c1
000000e0: cf77 a9c1 310e acc1 be6a aac1 9042 ab41
000000f0: 8de6 a841 3066 a941 3e41 abc1 c10d a941
00000100: b16f ab41 71e4 aa41 fb95 aa41 457c ab41
00000110: 1822 a941 75a7 a8c1 33d3 a841 f31e aac1
00000120: 53a2 a941 b71c acc1 9652 aa41 8c93 abc1
00000130: 2d55 a8c1 ae31 a9c1 5a8e a8c1 d528 ab41
00000140: 2bde aa41 1577 a941 e7bc a9c1 b7c7 a741
00000150: 114a ab41 7fa0 a941 6f3e aa41 297d ab41
00000160: 3bc1 a941 9bac a9c1 1f7a aa41 872e a9c1
00000170: 766a aa41 1801 aac1 84c1 a841 726a abc1
00000180: ccc3 abc1 3dbf aac1 11a6 a8c1 8250 a941
00000190: 3b3a aa41 458a ab41 27b5 aac1 ea0f a741
000001a0: 9534 ab41 574d a941 64a4 a941 ae6e a841
000001b0: 6daa aa41 fe66 a7c1 d71e a941 0286 abc1
000001c0: e91a ab41 d8b8 abc1 2ff0 a841 d386 abc1
000001d0: 7c5c a9c1 2209 aac1 6315 aac1 cc1d aa41
000001e0: ea90 a841 205e aa41 5a6c abc1 d289 ae41
000001f0: 7979 a841 a9aa aa41 8c09 aa41 a760 aa41
00000200: 8f5c ab41 a7b9 a9c1 186c aa41 0edd a9c1
00000210: 5777 a841 59e6 a8c1 fcb2 a941 ac2f aac1
00000220: c46d a9c1 f7b9 abc1 7f8c a9c1 184c a841
00000230: 1fae a841 b81f a941 37d6 a9c1 bfc0 ac41
00000240: e25c aa41 b9b0 ab41 8623 a941 fbc2 a841
00000250: 77b5 a941 b398 a5c1 bd99 ab41 6a04 abc1
00000260: 25c1 aa41 b070 aac1 8f80 a941 bd0d a9c1
00000270: 625b a8c1 2cef abc1 8a9c a9c1 7b04 ab41
00000280: 8f6b a941 2a8b a941 31ee a9c1 5699 ad41
00000290: b104 aa41 ec3f aa41 f178 a941 f062 a841
000002a0: 881a aa41 cf6a abc1 d770 a941 0b40 aac1
000002b0: 5ffe a841 a6f8 a8c1 5e60 aa41 a380 aac1
000002c0: 1319 abc1 32dc a8c1 8ed8 aac1 de59 ab41
000002d0: 2ee7 aa41 afc3 a941 9f85 a9c1 6882 ad41
000002e0: 0439 a941 2537 aa41 5f0b aa41 3837 a941
000002f0: 6826 ab41 17f3 abc1 2609 aa41 c5c8 a8c1
00000300: 33c5 a841 5bdd a8c1 4402 a841 0526 abc1
00000310: b975 a9c1 c39e abc1 049d a9c1 2648 aa41
00000320: d8bd a941 c6d1 a941 01fb a8c1 1501 ab41
00000330: 54d7 a941 8b08 ab41 ba40 a941 bb94 ac41
00000340: 90b3 aa41 3619 acc1 8885 aa41 439b a8c1
00000350: d9ac aa41 23a9 a9c1 5524 a941 cc49 aac1
00000360: bbb2 a7c1 94cf a9c1 5298 a9c1 3537 aa41
00000370: 817a a841 dde7 a941 32e3 aac1 a017 ad41
00000380: cbf2 a741 1b3d aa41 d159 aa41 1e2d ae41
00000390: c900 a941 28df abc1 0e07 ab41 60ce a9c1
000003a0: 4fa8 a841 b91e a8c1 dcf1 a841 16b9 a9c1
000003b0: 5d02 a9c1 cf44 abc1 0b0a aac1 916a aa41
000003c0: 1ae6 a941 8e21 a841 7256 a9c1 8f01 ac41
000003d0: ab28 aa41 d7fa a841 5e8c a841 a97f ad41
000003e0: 652a a941 ff1d adc1 44fe a841 0c9c a8c1
000003f0: 6c13 ab41 e442 abc1 d146 a841 6904 abc1

linear.bias f4 [100]
21.03518 21.207104 20.870747 20.875029 20.916641 21.0783 20.82862 21.265438
20.824121 20.962324 21.10933 20.942059 20.839493 20.92436 20.916355 20.7411
20.945549 21.01372 21.156977 21.11476 20.829079 20.933735 20.577572 21.1061
20.859236 20.615223 20.673058 20.722439 20.505035 20.702118 20.72095 20.550594
20.81665 20.737743 20.84107 20.49422 20.546612 20.721088 20.830639 20.677387
20.761312 20.570036 20.882591 20.806 20.673367 20.834484 20.86449 20.76356
20.467638 20.767277 20.70076 20.909283 20.518997 20.530495 20.774673 20.77899
20.802275 20.51717 20.720383 20.700174 20.564041 20.452003 20.530048 20.515121
20.731983 20.332167 20.66325 20.702517 20.495668 20.66452 20.38502 20.47292
20.592392 20.799093 20.846857 20.81699 20.645605 20.716608 20.361658 20.50809
20.942938 20.661623 20.653885 20.59286 20.49586 20.53332 20.676157 20.613474
20.408321 20.392277 20.55135 20.60193 20.543123 20.56192 20.571705 20.58125
20.424171 20.765839 20.836174 21.122065
00000000: 0c48 a841 26a8 a941 4af7 a641 0f00 a741
00000010: 4855 a741 5ca0 a841 04a1 a641 9e1f aa41
00000020: cd97 a641 d7b2 a741 e8df a841 5689 a741
00000030: 48b7 a641 1765 a741 b254 a741 c6ed a541
00000040: 7c90 a741 191c a841 7d41 a941 07eb a841
00000050: f4a1 a641 4a78 a741 de9e a441 4bd9 a841
00000060: b7df a641 faeb a441 6c62 a541 8ec7 a541
00000070: 500a a441 f09d a541 81c4 a541 9e67 a441
00000080: 8088 a641 e6e6 a541 83ba a641 2af4 a341
00000090: 765f a441 cac4 a541 26a5 a641 4a6b a541
000000a0: 2b17 a641 6f8f a441 8c0f a741 b072 a641
000000b0: 0e63 a541 06ad a641 7aea a641 c51b a641
000000c0: b9bd a341 6223 a641 289b a541 3646 a741
000000d0: e826 a441 743e a441 8832 a641 5f3b a641
000000e0: 0f6b a641 2a23 a441 58c3 a541 f599 a541
000000f0: 2883 a441 b49d a341 8a3d a441 f81e a441
00000100: 1adb a541 47a8 a241 564e a541 c19e a541
00000110: 21f7 a341 f050 a541 8514 a341 8ac8 a341
00000120: 38bd a441 8b64 a641 5dc6 a641 3289 a641
00000130: 332a a541 9dbb a541 ade4 a241 9110 a441
00000140: 238b a741 014b a541 283b a541 2dbe a441
00000150: 85f7 a341 3d44 a441 c568 a541 65e8 a441
00000160: 3e44 a341 6223 a341 2a69 a441 c1d0 a441
00000170: 5158 a441 d07e a441 da92 a441 66a6 a441
00000180: b464 a341 7020 a641 7cb0 a641 fdf9 a841
