rnn_v_1_0_0.pth (torch_old, 1574 bytes, 9 tensors)

rnn.weight_ih_l0 f4 [4, 1]
0.76575625 3.8007638 -3.0930488 4.3492785
00000000: 9a08 443f b73f 7340 83f4 45c0 4a2d 8b40

rnn.weight_hh_l0 f4 [4, 1]
7.3780227 -0.1255606 -0.7488956 6.381107
00000000: c318 ec40 f592 00be 9fb7 3fbf 0732 cc40

rnn.bias_ih_l0 f4 [4]
1.8661792 -0.9060282 0.6857909 2.694445
00000000: f6de ee3f 77f1 67bf fe8f 2f3f c971 2c40

rnn.bias_hh_l0 f4 [4]
0.90808547 -0.596032 0.47018367 2.2678752
00000000: 4a78 683f 8e95 18bf eabb f03e de24 1140

rnn.weight_ih_l0_reverse f4 [4, 1]
-0.34585097 2.1501114 2.2549891 3.071411
00000000: 6113 b1be 6d9b 0940 be51 1040 ff91 4440

rnn.weight_hh_l0_reverse f4 [4, 1]
-2.4579537 -1.0123872 -2.0835173 -5.8865504
00000000: 1d4f 1dc0 e795 81bf 5958 05c0 9f5e bcc0

rnn.bias_ih_l0_reverse f4 [4]
0.38778365 0.9243603 -0.7809161 1.7000818
00000000: 948b c63e e0a2 6c3f 1eea 47bf 489c d93f

rnn.bias_hh_l0_reverse f4 [4]
-0.012496662 -0.29895586 -0.4617657 0.5348781
00000000: cdbe 4cbc be10 99be 8e6c ecbe c5ed 083f

linear.weight f4 [1, 2]
23.860052 -22.177727
00000000: 63e1 be41 fc6b b1c1
